…
2022-05-10 04:42:55,477 INFO: Training statistics:
	Number of train images: 6000
	Dataset enlarge ratio: 1
	Batch size per gpu: 2
	World size (gpu number): 4
	Require iter number per epoch: 750
	Total epochs: 267; iters: 200000.
2022-05-10 04:42:55,495 INFO: Dataset PairedImageDataset - GainMat is created.
2022-05-10 04:42:55,496 INFO: Number of val images/folders in GainMat: 575
----------------------------------------------------------------
        Layer (type)               Output Shape         Param #
================================================================
            Conv2d-1         [-1, 32, 960, 240]             320
       LayerNorm2d-2         [-1, 32, 960, 240]              64
            Conv2d-3         [-1, 64, 960, 240]           2,112
            Conv2d-4         [-1, 64, 960, 240]             640
        SimpleGate-5         [-1, 32, 960, 240]               0
 AdaptiveAvgPool2d-6             [-1, 32, 1, 1]               0
            Conv2d-7             [-1, 32, 1, 1]           1,056
            Conv2d-8         [-1, 32, 960, 240]           1,056
          Identity-9         [-1, 32, 960, 240]               0
      LayerNorm2d-10         [-1, 32, 960, 240]              64
           Conv2d-11         [-1, 64, 960, 240]           2,112
       SimpleGate-12         [-1, 32, 960, 240]               0
           Conv2d-13         [-1, 32, 960, 240]           1,056
         Identity-14         [-1, 32, 960, 240]               0
         NAFBlock-15         [-1, 32, 960, 240]               0
           Conv2d-16         [-1, 64, 480, 120]           8,256
      LayerNorm2d-17         [-1, 64, 480, 120]             128
           Conv2d-18        [-1, 128, 480, 120]           8,320
           Conv2d-19        [-1, 128, 480, 120]           1,280
       SimpleGate-20         [-1, 64, 480, 120]               0
AdaptiveAvgPool2d-21             [-1, 64, 1, 1]               0
           Conv2d-22             [-1, 64, 1, 1]           4,160
           Conv2d-23         [-1, 64, 480, 120]           4,160
         Identity-24         [-1, 64, 480, 120]               0
      LayerNorm2d-25         [-1, 64, 480, 120]             128
           Conv2d-26        [-1, 128, 480, 120]           8,320
       SimpleGate-27         [-1, 64, 480, 120]               0
           Conv2d-28         [-1, 64, 480, 120]           4,160
         Identity-29         [-1, 64, 480, 120]               0
         NAFBlock-30         [-1, 64, 480, 120]               0
           Conv2d-31         [-1, 128, 240, 60]          32,896
      LayerNorm2d-32         [-1, 128, 240, 60]             256
           Conv2d-33         [-1, 256, 240, 60]          33,024
           Conv2d-34         [-1, 256, 240, 60]           2,560
       SimpleGate-35         [-1, 128, 240, 60]               0
AdaptiveAvgPool2d-36            [-1, 128, 1, 1]               0
           Conv2d-37            [-1, 128, 1, 1]          16,512
           Conv2d-38         [-1, 128, 240, 60]          16,512
         Identity-39         [-1, 128, 240, 60]               0
      LayerNorm2d-40         [-1, 128, 240, 60]             256
           Conv2d-41         [-1, 256, 240, 60]          33,024
       SimpleGate-42         [-1, 128, 240, 60]               0
           Conv2d-43         [-1, 128, 240, 60]          16,512
         Identity-44         [-1, 128, 240, 60]               0
         NAFBlock-45         [-1, 128, 240, 60]               0
           Conv2d-46         [-1, 256, 120, 30]         131,328
      LayerNorm2d-47         [-1, 256, 120, 30]             512
           Conv2d-48         [-1, 512, 120, 30]         131,584
           Conv2d-49         [-1, 512, 120, 30]           5,120
       SimpleGate-50         [-1, 256, 120, 30]               0
AdaptiveAvgPool2d-51            [-1, 256, 1, 1]               0
           Conv2d-52            [-1, 256, 1, 1]          65,792
           Conv2d-53         [-1, 256, 120, 30]          65,792
         Identity-54         [-1, 256, 120, 30]               0
      LayerNorm2d-55         [-1, 256, 120, 30]             512
           Conv2d-56         [-1, 512, 120, 30]         131,584
       SimpleGate-57         [-1, 256, 120, 30]               0
           Conv2d-58         [-1, 256, 120, 30]          65,792
         Identity-59         [-1, 256, 120, 30]               0
         NAFBlock-60         [-1, 256, 120, 30]               0
      LayerNorm2d-61         [-1, 256, 120, 30]             512
           Conv2d-62         [-1, 512, 120, 30]         131,584
           Conv2d-63         [-1, 512, 120, 30]           5,120
       SimpleGate-64         [-1, 256, 120, 30]               0
AdaptiveAvgPool2d-65            [-1, 256, 1, 1]               0
           Conv2d-66            [-1, 256, 1, 1]          65,792
           Conv2d-67         [-1, 256, 120, 30]          65,792
         Identity-68         [-1, 256, 120, 30]               0
      LayerNorm2d-69         [-1, 256, 120, 30]             512
           Conv2d-70         [-1, 512, 120, 30]         131,584
       SimpleGate-71         [-1, 256, 120, 30]               0
           Conv2d-72         [-1, 256, 120, 30]          65,792
         Identity-73         [-1, 256, 120, 30]               0
         NAFBlock-74         [-1, 256, 120, 30]               0
           Conv2d-75          [-1, 512, 60, 15]         524,800
      LayerNorm2d-76          [-1, 512, 60, 15]           1,024
           Conv2d-77         [-1, 1024, 60, 15]         525,312
           Conv2d-78         [-1, 1024, 60, 15]          10,240
       SimpleGate-79          [-1, 512, 60, 15]               0
AdaptiveAvgPool2d-80            [-1, 512, 1, 1]               0
           Conv2d-81            [-1, 512, 1, 1]         262,656
           Conv2d-82          [-1, 512, 60, 15]         262,656
         Identity-83          [-1, 512, 60, 15]               0
      LayerNorm2d-84          [-1, 512, 60, 15]           1,024
           Conv2d-85         [-1, 1024, 60, 15]         525,312
       SimpleGate-86          [-1, 512, 60, 15]               0
           Conv2d-87          [-1, 512, 60, 15]         262,656
         Identity-88          [-1, 512, 60, 15]               0
         NAFBlock-89          [-1, 512, 60, 15]               0
           Conv2d-90         [-1, 1024, 60, 15]         524,288
     PixelShuffle-91         [-1, 256, 120, 30]               0
      LayerNorm2d-92         [-1, 256, 120, 30]             512
           Conv2d-93         [-1, 512, 120, 30]         131,584
           Conv2d-94         [-1, 512, 120, 30]           5,120
       SimpleGate-95         [-1, 256, 120, 30]               0
AdaptiveAvgPool2d-96            [-1, 256, 1, 1]               0
           Conv2d-97            [-1, 256, 1, 1]          65,792
           Conv2d-98         [-1, 256, 120, 30]          65,792
         Identity-99         [-1, 256, 120, 30]               0
     LayerNorm2d-100         [-1, 256, 120, 30]             512
          Conv2d-101         [-1, 512, 120, 30]         131,584
      SimpleGate-102         [-1, 256, 120, 30]               0
          Conv2d-103         [-1, 256, 120, 30]          65,792
        Identity-104         [-1, 256, 120, 30]               0
        NAFBlock-105         [-1, 256, 120, 30]               0
          Conv2d-106         [-1, 512, 120, 30]         131,072
    PixelShuffle-107         [-1, 128, 240, 60]               0
     LayerNorm2d-108         [-1, 128, 240, 60]             256
          Conv2d-109         [-1, 256, 240, 60]          33,024
          Conv2d-110         [-1, 256, 240, 60]           2,560
      SimpleGate-111         [-1, 128, 240, 60]               0
AdaptiveAvgPool2d-112            [-1, 128, 1, 1]               0
          Conv2d-113            [-1, 128, 1, 1]          16,512
          Conv2d-114         [-1, 128, 240, 60]          16,512
        Identity-115         [-1, 128, 240, 60]               0
     LayerNorm2d-116         [-1, 128, 240, 60]             256
          Conv2d-117         [-1, 256, 240, 60]          33,024
      SimpleGate-118         [-1, 128, 240, 60]               0
          Conv2d-119         [-1, 128, 240, 60]          16,512
        Identity-120         [-1, 128, 240, 60]               0
        NAFBlock-121         [-1, 128, 240, 60]               0
          Conv2d-122         [-1, 256, 240, 60]          32,768
    PixelShuffle-123         [-1, 64, 480, 120]               0
     LayerNorm2d-124         [-1, 64, 480, 120]             128
          Conv2d-125        [-1, 128, 480, 120]           8,320
          Conv2d-126        [-1, 128, 480, 120]           1,280
      SimpleGate-127         [-1, 64, 480, 120]               0
AdaptiveAvgPool2d-128             [-1, 64, 1, 1]               0
          Conv2d-129             [-1, 64, 1, 1]           4,160
          Conv2d-130         [-1, 64, 480, 120]           4,160
        Identity-131         [-1, 64, 480, 120]               0
     LayerNorm2d-132         [-1, 64, 480, 120]             128
          Conv2d-133        [-1, 128, 480, 120]           8,320
      SimpleGate-134         [-1, 64, 480, 120]               0
          Conv2d-135         [-1, 64, 480, 120]           4,160
        Identity-136         [-1, 64, 480, 120]               0
        NAFBlock-137         [-1, 64, 480, 120]               0
          Conv2d-138        [-1, 128, 480, 120]           8,192
    PixelShuffle-139         [-1, 32, 960, 240]               0
     LayerNorm2d-140         [-1, 32, 960, 240]              64
          Conv2d-141         [-1, 64, 960, 240]           2,112
          Conv2d-142         [-1, 64, 960, 240]             640
      SimpleGate-143         [-1, 32, 960, 240]               0
AdaptiveAvgPool2d-144             [-1, 32, 1, 1]               0
          Conv2d-145             [-1, 32, 1, 1]           1,056
          Conv2d-146         [-1, 32, 960, 240]           1,056
        Identity-147         [-1, 32, 960, 240]               0
     LayerNorm2d-148         [-1, 32, 960, 240]              64
          Conv2d-149         [-1, 64, 960, 240]           2,112
      SimpleGate-150         [-1, 32, 960, 240]               0
          Conv2d-151         [-1, 32, 960, 240]           1,056
        Identity-152         [-1, 32, 960, 240]               0
        NAFBlock-153         [-1, 32, 960, 240]               0
          Conv2d-154          [-1, 1, 960, 240]             289
================================================================
Total params: 4,960,097
Trainable params: 4,960,097
Non-trainable params: 0
----------------------------------------------------------------
Input size (MB): 0.88
Forward/backward pass size (MB): 3643.97
Params size (MB): 18.92
Estimated Total Size (MB): 3663.77
----------------------------------------------------------------
----------------------------------------------------------------
        Layer (type)               Output Shape         Param #
================================================================
            Conv2d-1         [-1, 32, 960, 240]             320
       LayerNorm2d-2         [-1, 32, 960, 240]              64
            Conv2d-3         [-1, 64, 960, 240]           2,112
            Conv2d-4         [-1, 64, 960, 240]             640
        SimpleGate-5         [-1, 32, 960, 240]               0
 AdaptiveAvgPool2d-6             [-1, 32, 1, 1]               0
            Conv2d-7             [-1, 32, 1, 1]           1,056
            Conv2d-8         [-1, 32, 960, 240]           1,056
          Identity-9         [-1, 32, 960, 240]               0
      LayerNorm2d-10         [-1, 32, 960, 240]              64
           Conv2d-11         [-1, 64, 960, 240]           2,112
       SimpleGate-12         [-1, 32, 960, 240]               0
           Conv2d-13         [-1, 32, 960, 240]           1,056
         Identity-14         [-1, 32, 960, 240]               0
         NAFBlock-15         [-1, 32, 960, 240]               0
           Conv2d-16         [-1, 64, 480, 120]           8,256
      LayerNorm2d-17         [-1, 64, 480, 120]             128
           Conv2d-18        [-1, 128, 480, 120]           8,320
           Conv2d-19        [-1, 128, 480, 120]           1,280
       SimpleGate-20         [-1, 64, 480, 120]               0
AdaptiveAvgPool2d-21             [-1, 64, 1, 1]               0
           Conv2d-22             [-1, 64, 1, 1]           4,160
           Conv2d-23         [-1, 64, 480, 120]           4,160
         Identity-24         [-1, 64, 480, 120]               0
      LayerNorm2d-25         [-1, 64, 480, 120]             128
           Conv2d-26        [-1, 128, 480, 120]           8,320
       SimpleGate-27         [-1, 64, 480, 120]               0
           Conv2d-28         [-1, 64, 480, 120]           4,160
         Identity-29         [-1, 64, 480, 120]               0
         NAFBlock-30         [-1, 64, 480, 120]               0
           Conv2d-31         [-1, 128, 240, 60]          32,896
      LayerNorm2d-32         [-1, 128, 240, 60]             256
           Conv2d-33         [-1, 256, 240, 60]          33,024
           Conv2d-34         [-1, 256, 240, 60]           2,560
       SimpleGate-35         [-1, 128, 240, 60]               0
AdaptiveAvgPool2d-36            [-1, 128, 1, 1]               0
           Conv2d-37            [-1, 128, 1, 1]          16,512
           Conv2d-38         [-1, 128, 240, 60]          16,512
         Identity-39         [-1, 128, 240, 60]               0
      LayerNorm2d-40         [-1, 128, 240, 60]             256
           Conv2d-41         [-1, 256, 240, 60]          33,024
       SimpleGate-42         [-1, 128, 240, 60]               0
           Conv2d-43         [-1, 128, 240, 60]          16,512
         Identity-44         [-1, 128, 240, 60]               0
         NAFBlock-45         [-1, 128, 240, 60]               0
           Conv2d-46         [-1, 256, 120, 30]         131,328
      LayerNorm2d-47         [-1, 256, 120, 30]             512
           Conv2d-48         [-1, 512, 120, 30]         131,584
           Conv2d-49         [-1, 512, 120, 30]           5,120
       SimpleGate-50         [-1, 256, 120, 30]               0
AdaptiveAvgPool2d-51            [-1, 256, 1, 1]               0
           Conv2d-52            [-1, 256, 1, 1]          65,792
           Conv2d-53         [-1, 256, 120, 30]          65,792
         Identity-54         [-1, 256, 120, 30]               0
      LayerNorm2d-55         [-1, 256, 120, 30]             512
           Conv2d-56         [-1, 512, 120, 30]         131,584
       SimpleGate-57         [-1, 256, 120, 30]               0
           Conv2d-58         [-1, 256, 120, 30]          65,792
         Identity-59         [-1, 256, 120, 30]               0
         NAFBlock-60         [-1, 256, 120, 30]               0
      LayerNorm2d-61         [-1, 256, 120, 30]             512
           Conv2d-62         [-1, 512, 120, 30]         131,584
           Conv2d-63         [-1, 512, 120, 30]           5,120
       SimpleGate-64         [-1, 256, 120, 30]               0
AdaptiveAvgPool2d-65            [-1, 256, 1, 1]               0
           Conv2d-66            [-1, 256, 1, 1]          65,792
           Conv2d-67         [-1, 256, 120, 30]          65,792
         Identity-68         [-1, 256, 120, 30]               0
      LayerNorm2d-69         [-1, 256, 120, 30]             512
           Conv2d-70         [-1, 512, 120, 30]         131,584
       SimpleGate-71         [-1, 256, 120, 30]               0
           Conv2d-72         [-1, 256, 120, 30]          65,792
         Identity-73         [-1, 256, 120, 30]               0
         NAFBlock-74         [-1, 256, 120, 30]               0
           Conv2d-75          [-1, 512, 60, 15]         524,800
      LayerNorm2d-76          [-1, 512, 60, 15]           1,024
           Conv2d-77         [-1, 1024, 60, 15]         525,312
           Conv2d-78         [-1, 1024, 60, 15]          10,240
       SimpleGate-79          [-1, 512, 60, 15]               0
AdaptiveAvgPool2d-80            [-1, 512, 1, 1]               0
           Conv2d-81            [-1, 512, 1, 1]         262,656
           Conv2d-82          [-1, 512, 60, 15]         262,656
         Identity-83          [-1, 512, 60, 15]               0
      LayerNorm2d-84          [-1, 512, 60, 15]           1,024
           Conv2d-85         [-1, 1024, 60, 15]         525,312
       SimpleGate-86          [-1, 512, 60, 15]               0
           Conv2d-87          [-1, 512, 60, 15]         262,656
         Identity-88          [-1, 512, 60, 15]               0
         NAFBlock-89          [-1, 512, 60, 15]               0
           Conv2d-90         [-1, 1024, 60, 15]         524,288
     PixelShuffle-91         [-1, 256, 120, 30]               0
      LayerNorm2d-92         [-1, 256, 120, 30]             512
           Conv2d-93         [-1, 512, 120, 30]         131,584
           Conv2d-94         [-1, 512, 120, 30]           5,120
       SimpleGate-95         [-1, 256, 120, 30]               0
AdaptiveAvgPool2d-96            [-1, 256, 1, 1]               0
           Conv2d-97            [-1, 256, 1, 1]          65,792
           Conv2d-98         [-1, 256, 120, 30]          65,792
         Identity-99         [-1, 256, 120, 30]               0
     LayerNorm2d-100         [-1, 256, 120, 30]             512
          Conv2d-101         [-1, 512, 120, 30]         131,584
      SimpleGate-102         [-1, 256, 120, 30]               0
          Conv2d-103         [-1, 256, 120, 30]          65,792
        Identity-104         [-1, 256, 120, 30]               0
        NAFBlock-105         [-1, 256, 120, 30]               0
          Conv2d-106         [-1, 512, 120, 30]         131,072
    PixelShuffle-107         [-1, 128, 240, 60]               0
     LayerNorm2d-108         [-1, 128, 240, 60]             256
          Conv2d-109         [-1, 256, 240, 60]          33,024
          Conv2d-110         [-1, 256, 240, 60]           2,560
      SimpleGate-111         [-1, 128, 240, 60]               0
AdaptiveAvgPool2d-112            [-1, 128, 1, 1]               0
          Conv2d-113            [-1, 128, 1, 1]          16,512
          Conv2d-114         [-1, 128, 240, 60]          16,512
        Identity-115         [-1, 128, 240, 60]               0
     LayerNorm2d-116         [-1, 128, 240, 60]             256
          Conv2d-117         [-1, 256, 240, 60]          33,024
      SimpleGate-118         [-1, 128, 240, 60]               0
          Conv2d-119         [-1, 128, 240, 60]          16,512
        Identity-120         [-1, 128, 240, 60]               0
        NAFBlock-121         [-1, 128, 240, 60]               0
          Conv2d-122         [-1, 256, 240, 60]          32,768
    PixelShuffle-123         [-1, 64, 480, 120]               0
     LayerNorm2d-124         [-1, 64, 480, 120]             128
          Conv2d-125        [-1, 128, 480, 120]           8,320
          Conv2d-126        [-1, 128, 480, 120]           1,280
      SimpleGate-127         [-1, 64, 480, 120]               0
AdaptiveAvgPool2d-128             [-1, 64, 1, 1]               0
          Conv2d-129             [-1, 64, 1, 1]           4,160
          Conv2d-130         [-1, 64, 480, 120]           4,160
        Identity-131         [-1, 64, 480, 120]               0
     LayerNorm2d-132         [-1, 64, 480, 120]             128
          Conv2d-133        [-1, 128, 480, 120]           8,320
      SimpleGate-134         [-1, 64, 480, 120]               0
          Conv2d-135         [-1, 64, 480, 120]           4,160
        Identity-136         [-1, 64, 480, 120]               0
        NAFBlock-137         [-1, 64, 480, 120]               0
          Conv2d-138        [-1, 128, 480, 120]           8,192
    PixelShuffle-139         [-1, 32, 960, 240]               0
     LayerNorm2d-140         [-1, 32, 960, 240]              64
          Conv2d-141         [-1, 64, 960, 240]           2,112
          Conv2d-142         [-1, 64, 960, 240]             640
      SimpleGate-143         [-1, 32, 960, 240]               0
AdaptiveAvgPool2d-144             [-1, 32, 1, 1]               0
          Conv2d-145             [-1, 32, 1, 1]           1,056
          Conv2d-146         [-1, 32, 960, 240]           1,056
        Identity-147         [-1, 32, 960, 240]               0
     LayerNorm2d-148         [-1, 32, 960, 240]              64
          Conv2d-149         [-1, 64, 960, 240]           2,112
      SimpleGate-150         [-1, 32, 960, 240]               0
          Conv2d-151         [-1, 32, 960, 240]           1,056
        Identity-152         [-1, 32, 960, 240]               0
        NAFBlock-153         [-1, 32, 960, 240]               0
          Conv2d-154          [-1, 1, 960, 240]             289
================================================================
Total params: 4,960,097
Trainable params: 4,960,097
Non-trainable params: 0
----------------------------------------------------------------
Input size (MB): 0.88
Forward/backward pass size (MB): 3643.97
Params size (MB): 18.92
Estimated Total Size (MB): 3663.77
----------------------------------------------------------------
----------------------------------------------------------------
        Layer (type)               Output Shape         Param #
================================================================
            Conv2d-1         [-1, 32, 960, 240]             320
       LayerNorm2d-2         [-1, 32, 960, 240]              64
            Conv2d-3         [-1, 64, 960, 240]           2,112
            Conv2d-4         [-1, 64, 960, 240]             640
        SimpleGate-5         [-1, 32, 960, 240]               0
 AdaptiveAvgPool2d-6             [-1, 32, 1, 1]               0
            Conv2d-7             [-1, 32, 1, 1]           1,056
            Conv2d-8         [-1, 32, 960, 240]           1,056
          Identity-9         [-1, 32, 960, 240]               0
      LayerNorm2d-10         [-1, 32, 960, 240]              64
           Conv2d-11         [-1, 64, 960, 240]           2,112
       SimpleGate-12         [-1, 32, 960, 240]               0
           Conv2d-13         [-1, 32, 960, 240]           1,056
         Identity-14         [-1, 32, 960, 240]               0
         NAFBlock-15         [-1, 32, 960, 240]               0
           Conv2d-16         [-1, 64, 480, 120]           8,256
      LayerNorm2d-17         [-1, 64, 480, 120]             128
           Conv2d-18        [-1, 128, 480, 120]           8,320
           Conv2d-19        [-1, 128, 480, 120]           1,280
       SimpleGate-20         [-1, 64, 480, 120]               0
AdaptiveAvgPool2d-21             [-1, 64, 1, 1]               0
           Conv2d-22             [-1, 64, 1, 1]           4,160
           Conv2d-23         [-1, 64, 480, 120]           4,160
         Identity-24         [-1, 64, 480, 120]               0
      LayerNorm2d-25         [-1, 64, 480, 120]             128
           Conv2d-26        [-1, 128, 480, 120]           8,320
       SimpleGate-27         [-1, 64, 480, 120]               0
           Conv2d-28         [-1, 64, 480, 120]           4,160
         Identity-29         [-1, 64, 480, 120]               0
         NAFBlock-30         [-1, 64, 480, 120]               0
           Conv2d-31         [-1, 128, 240, 60]          32,896
      LayerNorm2d-32         [-1, 128, 240, 60]             256
           Conv2d-33         [-1, 256, 240, 60]          33,024
           Conv2d-34         [-1, 256, 240, 60]           2,560
       SimpleGate-35         [-1, 128, 240, 60]               0
AdaptiveAvgPool2d-36            [-1, 128, 1, 1]               0
           Conv2d-37            [-1, 128, 1, 1]          16,512
           Conv2d-38         [-1, 128, 240, 60]          16,512
         Identity-39         [-1, 128, 240, 60]               0
      LayerNorm2d-40         [-1, 128, 240, 60]             256
           Conv2d-41         [-1, 256, 240, 60]          33,024
       SimpleGate-42         [-1, 128, 240, 60]               0
           Conv2d-43         [-1, 128, 240, 60]          16,512
         Identity-44         [-1, 128, 240, 60]               0
         NAFBlock-45         [-1, 128, 240, 60]               0
           Conv2d-46         [-1, 256, 120, 30]         131,328
      LayerNorm2d-47         [-1, 256, 120, 30]             512
           Conv2d-48         [-1, 512, 120, 30]         131,584
           Conv2d-49         [-1, 512, 120, 30]           5,120
       SimpleGate-50         [-1, 256, 120, 30]               0
AdaptiveAvgPool2d-51            [-1, 256, 1, 1]               0
           Conv2d-52            [-1, 256, 1, 1]          65,792
           Conv2d-53         [-1, 256, 120, 30]          65,792
         Identity-54         [-1, 256, 120, 30]               0
      LayerNorm2d-55         [-1, 256, 120, 30]             512
           Conv2d-56         [-1, 512, 120, 30]         131,584
       SimpleGate-57         [-1, 256, 120, 30]               0
           Conv2d-58         [-1, 256, 120, 30]          65,792
         Identity-59         [-1, 256, 120, 30]               0
         NAFBlock-60         [-1, 256, 120, 30]               0
      LayerNorm2d-61         [-1, 256, 120, 30]             512
           Conv2d-62         [-1, 512, 120, 30]         131,584
           Conv2d-63         [-1, 512, 120, 30]           5,120
       SimpleGate-64         [-1, 256, 120, 30]               0
AdaptiveAvgPool2d-65            [-1, 256, 1, 1]               0
           Conv2d-66            [-1, 256, 1, 1]          65,792
           Conv2d-67         [-1, 256, 120, 30]          65,792
         Identity-68         [-1, 256, 120, 30]               0
      LayerNorm2d-69         [-1, 256, 120, 30]             512
           Conv2d-70         [-1, 512, 120, 30]         131,584
       SimpleGate-71         [-1, 256, 120, 30]               0
           Conv2d-72         [-1, 256, 120, 30]          65,792
         Identity-73         [-1, 256, 120, 30]               0
         NAFBlock-74         [-1, 256, 120, 30]               0
           Conv2d-75          [-1, 512, 60, 15]         524,800
      LayerNorm2d-76          [-1, 512, 60, 15]           1,024
           Conv2d-77         [-1, 1024, 60, 15]         525,312
           Conv2d-78         [-1, 1024, 60, 15]          10,240
       SimpleGate-79          [-1, 512, 60, 15]               0
AdaptiveAvgPool2d-80            [-1, 512, 1, 1]               0
           Conv2d-81            [-1, 512, 1, 1]         262,656
           Conv2d-82          [-1, 512, 60, 15]         262,656
         Identity-83          [-1, 512, 60, 15]               0
      LayerNorm2d-84          [-1, 512, 60, 15]           1,024
           Conv2d-85         [-1, 1024, 60, 15]         525,312
       SimpleGate-86          [-1, 512, 60, 15]               0
           Conv2d-87          [-1, 512, 60, 15]         262,656
         Identity-88          [-1, 512, 60, 15]               0
         NAFBlock-89          [-1, 512, 60, 15]               0
           Conv2d-90         [-1, 1024, 60, 15]         524,288
     PixelShuffle-91         [-1, 256, 120, 30]               0
      LayerNorm2d-92         [-1, 256, 120, 30]             512
           Conv2d-93         [-1, 512, 120, 30]         131,584
           Conv2d-94         [-1, 512, 120, 30]           5,120
       SimpleGate-95         [-1, 256, 120, 30]               0
AdaptiveAvgPool2d-96            [-1, 256, 1, 1]               0
           Conv2d-97            [-1, 256, 1, 1]          65,792
           Conv2d-98         [-1, 256, 120, 30]          65,792
         Identity-99         [-1, 256, 120, 30]               0
     LayerNorm2d-100         [-1, 256, 120, 30]             512
          Conv2d-101         [-1, 512, 120, 30]         131,584
      SimpleGate-102         [-1, 256, 120, 30]               0
          Conv2d-103         [-1, 256, 120, 30]          65,792
        Identity-104         [-1, 256, 120, 30]               0
        NAFBlock-105         [-1, 256, 120, 30]               0
          Conv2d-106         [-1, 512, 120, 30]         131,072
    PixelShuffle-107         [-1, 128, 240, 60]               0
     LayerNorm2d-108         [-1, 128, 240, 60]             256
          Conv2d-109         [-1, 256, 240, 60]          33,024
          Conv2d-110         [-1, 256, 240, 60]           2,560
      SimpleGate-111         [-1, 128, 240, 60]               0
AdaptiveAvgPool2d-112            [-1, 128, 1, 1]               0
          Conv2d-113            [-1, 128, 1, 1]          16,512
          Conv2d-114         [-1, 128, 240, 60]          16,512
        Identity-115         [-1, 128, 240, 60]               0
     LayerNorm2d-116         [-1, 128, 240, 60]             256
          Conv2d-117         [-1, 256, 240, 60]          33,024
      SimpleGate-118         [-1, 128, 240, 60]               0
          Conv2d-119         [-1, 128, 240, 60]          16,512
        Identity-120         [-1, 128, 240, 60]               0
        NAFBlock-121         [-1, 128, 240, 60]               0
          Conv2d-122         [-1, 256, 240, 60]          32,768
    PixelShuffle-123         [-1, 64, 480, 120]               0
     LayerNorm2d-124         [-1, 64, 480, 120]             128
          Conv2d-125        [-1, 128, 480, 120]           8,320
          Conv2d-126        [-1, 128, 480, 120]           1,280
      SimpleGate-127         [-1, 64, 480, 120]               0
AdaptiveAvgPool2d-128             [-1, 64, 1, 1]               0
          Conv2d-129             [-1, 64, 1, 1]           4,160
          Conv2d-130         [-1, 64, 480, 120]           4,160
        Identity-131         [-1, 64, 480, 120]               0
     LayerNorm2d-132         [-1, 64, 480, 120]             128
          Conv2d-133        [-1, 128, 480, 120]           8,320
      SimpleGate-134         [-1, 64, 480, 120]               0
          Conv2d-135         [-1, 64, 480, 120]           4,160
        Identity-136         [-1, 64, 480, 120]               0
        NAFBlock-137         [-1, 64, 480, 120]               0
          Conv2d-138        [-1, 128, 480, 120]           8,192
    PixelShuffle-139         [-1, 32, 960, 240]               0
     LayerNorm2d-140         [-1, 32, 960, 240]              64
          Conv2d-141         [-1, 64, 960, 240]           2,112
          Conv2d-142         [-1, 64, 960, 240]             640
      SimpleGate-143         [-1, 32, 960, 240]               0
AdaptiveAvgPool2d-144             [-1, 32, 1, 1]               0
          Conv2d-145             [-1, 32, 1, 1]           1,056
          Conv2d-146         [-1, 32, 960, 240]           1,056
        Identity-147         [-1, 32, 960, 240]               0
     LayerNorm2d-148         [-1, 32, 960, 240]              64
          Conv2d-149         [-1, 64, 960, 240]           2,112
      SimpleGate-150         [-1, 32, 960, 240]               0
          Conv2d-151         [-1, 32, 960, 240]           1,056
        Identity-152         [-1, 32, 960, 240]               0
        NAFBlock-153         [-1, 32, 960, 240]               0
          Conv2d-154          [-1, 1, 960, 240]             289
================================================================
Total params: 4,960,097
Trainable params: 4,960,097
Non-trainable params: 0
----------------------------------------------------------------
Input size (MB): 0.88
Forward/backward pass size (MB): 3643.97
Params size (MB): 18.92
Estimated Total Size (MB): 3663.77
----------------------------------------------------------------
----------------------------------------------------------------
        Layer (type)               Output Shape         Param #
================================================================
            Conv2d-1         [-1, 32, 960, 240]             320
       LayerNorm2d-2         [-1, 32, 960, 240]              64
            Conv2d-3         [-1, 64, 960, 240]           2,112
            Conv2d-4         [-1, 64, 960, 240]             640
        SimpleGate-5         [-1, 32, 960, 240]               0
 AdaptiveAvgPool2d-6             [-1, 32, 1, 1]               0
            Conv2d-7             [-1, 32, 1, 1]           1,056
            Conv2d-8         [-1, 32, 960, 240]           1,056
          Identity-9         [-1, 32, 960, 240]               0
      LayerNorm2d-10         [-1, 32, 960, 240]              64
           Conv2d-11         [-1, 64, 960, 240]           2,112
       SimpleGate-12         [-1, 32, 960, 240]               0
           Conv2d-13         [-1, 32, 960, 240]           1,056
         Identity-14         [-1, 32, 960, 240]               0
         NAFBlock-15         [-1, 32, 960, 240]               0
           Conv2d-16         [-1, 64, 480, 120]           8,256
      LayerNorm2d-17         [-1, 64, 480, 120]             128
           Conv2d-18        [-1, 128, 480, 120]           8,320
           Conv2d-19        [-1, 128, 480, 120]           1,280
       SimpleGate-20         [-1, 64, 480, 120]               0
AdaptiveAvgPool2d-21             [-1, 64, 1, 1]               0
           Conv2d-22             [-1, 64, 1, 1]           4,160
           Conv2d-23         [-1, 64, 480, 120]           4,160
         Identity-24         [-1, 64, 480, 120]               0
      LayerNorm2d-25         [-1, 64, 480, 120]             128
           Conv2d-26        [-1, 128, 480, 120]           8,320
       SimpleGate-27         [-1, 64, 480, 120]               0
           Conv2d-28         [-1, 64, 480, 120]           4,160
         Identity-29         [-1, 64, 480, 120]               0
         NAFBlock-30         [-1, 64, 480, 120]               0
           Conv2d-31         [-1, 128, 240, 60]          32,896
      LayerNorm2d-32         [-1, 128, 240, 60]             256
           Conv2d-33         [-1, 256, 240, 60]          33,024
           Conv2d-34         [-1, 256, 240, 60]           2,560
       SimpleGate-35         [-1, 128, 240, 60]               0
AdaptiveAvgPool2d-36            [-1, 128, 1, 1]               0
           Conv2d-37            [-1, 128, 1, 1]          16,512
           Conv2d-38         [-1, 128, 240, 60]          16,512
         Identity-39         [-1, 128, 240, 60]               0
      LayerNorm2d-40         [-1, 128, 240, 60]             256
           Conv2d-41         [-1, 256, 240, 60]          33,024
       SimpleGate-42         [-1, 128, 240, 60]               0
           Conv2d-43         [-1, 128, 240, 60]          16,512
         Identity-44         [-1, 128, 240, 60]               0
         NAFBlock-45         [-1, 128, 240, 60]               0
           Conv2d-46         [-1, 256, 120, 30]         131,328
      LayerNorm2d-47         [-1, 256, 120, 30]             512
           Conv2d-48         [-1, 512, 120, 30]         131,584
           Conv2d-49         [-1, 512, 120, 30]           5,120
       SimpleGate-50         [-1, 256, 120, 30]               0
AdaptiveAvgPool2d-51            [-1, 256, 1, 1]               0
           Conv2d-52            [-1, 256, 1, 1]          65,792
           Conv2d-53         [-1, 256, 120, 30]          65,792
         Identity-54         [-1, 256, 120, 30]               0
      LayerNorm2d-55         [-1, 256, 120, 30]             512
           Conv2d-56         [-1, 512, 120, 30]         131,584
       SimpleGate-57         [-1, 256, 120, 30]               0
           Conv2d-58         [-1, 256, 120, 30]          65,792
         Identity-59         [-1, 256, 120, 30]               0
         NAFBlock-60         [-1, 256, 120, 30]               0
      LayerNorm2d-61         [-1, 256, 120, 30]             512
           Conv2d-62         [-1, 512, 120, 30]         131,584
           Conv2d-63         [-1, 512, 120, 30]           5,120
       SimpleGate-64         [-1, 256, 120, 30]               0
AdaptiveAvgPool2d-65            [-1, 256, 1, 1]               0
           Conv2d-66            [-1, 256, 1, 1]          65,792
           Conv2d-67         [-1, 256, 120, 30]          65,792
         Identity-68         [-1, 256, 120, 30]               0
      LayerNorm2d-69         [-1, 256, 120, 30]             512
           Conv2d-70         [-1, 512, 120, 30]         131,584
       SimpleGate-71         [-1, 256, 120, 30]               0
           Conv2d-72         [-1, 256, 120, 30]          65,792
         Identity-73         [-1, 256, 120, 30]               0
         NAFBlock-74         [-1, 256, 120, 30]               0
           Conv2d-75          [-1, 512, 60, 15]         524,800
      LayerNorm2d-76          [-1, 512, 60, 15]           1,024
           Conv2d-77         [-1, 1024, 60, 15]         525,312
           Conv2d-78         [-1, 1024, 60, 15]          10,240
       SimpleGate-79          [-1, 512, 60, 15]               0
AdaptiveAvgPool2d-80            [-1, 512, 1, 1]               0
           Conv2d-81            [-1, 512, 1, 1]         262,656
           Conv2d-82          [-1, 512, 60, 15]         262,656
         Identity-83          [-1, 512, 60, 15]               0
      LayerNorm2d-84          [-1, 512, 60, 15]           1,024
           Conv2d-85         [-1, 1024, 60, 15]         525,312
       SimpleGate-86          [-1, 512, 60, 15]               0
           Conv2d-87          [-1, 512, 60, 15]         262,656
         Identity-88          [-1, 512, 60, 15]               0
         NAFBlock-89          [-1, 512, 60, 15]               0
           Conv2d-90         [-1, 1024, 60, 15]         524,288
     PixelShuffle-91         [-1, 256, 120, 30]               0
      LayerNorm2d-92         [-1, 256, 120, 30]             512
           Conv2d-93         [-1, 512, 120, 30]         131,584
           Conv2d-94         [-1, 512, 120, 30]           5,120
       SimpleGate-95         [-1, 256, 120, 30]               0
AdaptiveAvgPool2d-96            [-1, 256, 1, 1]               0
           Conv2d-97            [-1, 256, 1, 1]          65,792
           Conv2d-98         [-1, 256, 120, 30]          65,792
         Identity-99         [-1, 256, 120, 30]               0
     LayerNorm2d-100         [-1, 256, 120, 30]             512
          Conv2d-101         [-1, 512, 120, 30]         131,584
      SimpleGate-102         [-1, 256, 120, 30]               0
          Conv2d-103         [-1, 256, 120, 30]          65,792
        Identity-104         [-1, 256, 120, 30]               0
        NAFBlock-105         [-1, 256, 120, 30]               0
          Conv2d-106         [-1, 512, 120, 30]         131,072
    PixelShuffle-107         [-1, 128, 240, 60]               0
     LayerNorm2d-108         [-1, 128, 240, 60]             256
          Conv2d-109         [-1, 256, 240, 60]          33,024
          Conv2d-110         [-1, 256, 240, 60]           2,560
      SimpleGate-111         [-1, 128, 240, 60]               0
AdaptiveAvgPool2d-112            [-1, 128, 1, 1]               0
          Conv2d-113            [-1, 128, 1, 1]          16,512
          Conv2d-114         [-1, 128, 240, 60]          16,512
        Identity-115         [-1, 128, 240, 60]               0
     LayerNorm2d-116         [-1, 128, 240, 60]             256
          Conv2d-117         [-1, 256, 240, 60]          33,024
      SimpleGate-118         [-1, 128, 240, 60]               0
          Conv2d-119         [-1, 128, 240, 60]          16,512
        Identity-120         [-1, 128, 240, 60]               0
        NAFBlock-121         [-1, 128, 240, 60]               0
          Conv2d-122         [-1, 256, 240, 60]          32,768
    PixelShuffle-123         [-1, 64, 480, 120]               0
     LayerNorm2d-124         [-1, 64, 480, 120]             128
          Conv2d-125        [-1, 128, 480, 120]           8,320
          Conv2d-126        [-1, 128, 480, 120]           1,280
      SimpleGate-127         [-1, 64, 480, 120]               0
AdaptiveAvgPool2d-128             [-1, 64, 1, 1]               0
          Conv2d-129             [-1, 64, 1, 1]           4,160
          Conv2d-130         [-1, 64, 480, 120]           4,160
        Identity-131         [-1, 64, 480, 120]               0
     LayerNorm2d-132         [-1, 64, 480, 120]             128
          Conv2d-133        [-1, 128, 480, 120]           8,320
      SimpleGate-134         [-1, 64, 480, 120]               0
          Conv2d-135         [-1, 64, 480, 120]           4,160
        Identity-136         [-1, 64, 480, 120]               0
        NAFBlock-137         [-1, 64, 480, 120]               0
          Conv2d-138        [-1, 128, 480, 120]           8,192
    PixelShuffle-139         [-1, 32, 960, 240]               0
     LayerNorm2d-140         [-1, 32, 960, 240]              64
          Conv2d-141         [-1, 64, 960, 240]           2,112
          Conv2d-142         [-1, 64, 960, 240]             640
      SimpleGate-143         [-1, 32, 960, 240]               0
AdaptiveAvgPool2d-144             [-1, 32, 1, 1]               0
          Conv2d-145             [-1, 32, 1, 1]           1,056
          Conv2d-146         [-1, 32, 960, 240]           1,056
        Identity-147         [-1, 32, 960, 240]               0
     LayerNorm2d-148         [-1, 32, 960, 240]              64
          Conv2d-149         [-1, 64, 960, 240]           2,112
      SimpleGate-150         [-1, 32, 960, 240]               0
          Conv2d-151         [-1, 32, 960, 240]           1,056
        Identity-152         [-1, 32, 960, 240]               0
        NAFBlock-153         [-1, 32, 960, 240]               0
          Conv2d-154          [-1, 1, 960, 240]             289
================================================================
Total params: 4,960,097
Trainable params: 4,960,097
Non-trainable params: 0
----------------------------------------------------------------
Input size (MB): 0.88
Forward/backward pass size (MB): 3643.97
Params size (MB): 18.92
Estimated Total Size (MB): 3663.77
----------------------------------------------------------------
.. cosineannealingLR
…
